ollama-baseline-main/training/models/huanhuan_fast/checkpoint-16/adapter_model.safetensors (safetensors, 350248 bytes, 48 tensors)

base_model.model.model.layers.0.self_attn.q_proj.lora_A.weight f4 [2, 896]
0	0x3c8b7c19	0.017026948
1	0xbc36a384	-0.011147384
2	0x3911045a	0.00013829899
3	0xbc907811	-0.017635377
4	0x3bf1be25	0.0073774033
5	0xbc52a199	-0.012855911
6	0xbcca9023	-0.024726933
7	0x3cb0c9c5	0.021580586
8	0xbbb3e717	-0.0054901945
9	0x3cf71c5d	0.030164892
10	0xbc23c830	-0.009996459
11	0xbcb0ac2e	-0.021566477
12	0xbcfc1042	-0.030769471
13	0x3c46b9cc	0.012129258
14	0x3ce273a8	0.02764304
15	0xbd078bec	-0.033092424
16	0xbcda5d7b	-0.026655903
17	0x3c6a8436	0.014313748
18	0xbcc8e733	-0.024524307
19	0xbc283ad6	-0.010267934
20	0x3c09bdab	0.008407037
21	0x3c497202	0.012295248
22	0x3c1b2aff	0.0094707
23	0x3c92b924	0.017910548
24	0x3c9cf116	0.019157927
25	0xbba7e998	-0.005124282
26	0x3cfc9a62	0.030835334
27	0xbc19be09	-0.009383687
28	0x3c9b20d8	0.01893656
29	0x3cf8d27f	0.03037381
30	0x3ca14ea2	0.019690815
31	0xbceecc51	-0.02915016
32	0x3bb14de3	0.005410896
33	0xbca7fc52	-0.020506058
34	0x3cb09829	0.02155693
35	0x3cea571a	0.028605986
36	0xbcdf10a9	-0.027229624
37	0x3ca5842b	0.020204624
38	0x3cd72b3d	0.026265735
39	0x3cf9117a	0.030403841
40	0xbc7fa9de	-0.015604464
41	0x3cbd7ff7	0.023132307
42	0xbc78c7d9	-0.015184366
43	0x3c998c50	0.018743664
44	0xbb90ebce	-0.0044226414
45	0xbc1a27cb	-0.009408901
46	0xbcbd4ad3	-0.023106968
47	0x3ab5d1ee	0.0013871768
48	0x3c98adfb	0.018637648
49	0xbc2c2c57	-0.010508618
50	0xbca71065	-0.02039356
51	0x3c7596bc	0.014989551
52	0xbcc8265a	-0.02443235
53	0x3bb61f16	0.005557905
54	0xbca5a25e	-0.020219024
55	0xbc8cc273	-0.017182564
56	0xbcc23d63	-0.023710912
57	0xbc95635f	-0.01823586
58	0xbd0154de	-0.031575076
59	0xbd19ba60	-0.037531257
60	0xbbec8f6a	-0.0072192447
61	0xbca03204	-0.0195551
62	0x3d0218cd	0.031761933
63	0x3c7619fe	0.015020845
64	0x3c3a8e63	0.011386487
65	0xbbf8407d	-0.007576047
66	0x3cda7a1d	0.026669556
67	0xbcce5d1a	-0.025190879
68	0xbc994c5d	-0.01871317
69	0xbc9e05e9	-0.019289928
70	0x3c306c9c	0.010768082
71	0x3cc7fbb5	0.024412015
72	0xbc90c848	-0.017673627
73	0xbc329144	-0.010898892
74	0xbc142076	-0.009040942
75	0xbc962e41	-0.018332602
76	0x39e56d8e	0.00043759908
77	0xbb439a2f	-0.002984654
78	0x3cfa7717	0.030574365
79	0xbc3df117	-0.011593125
80	0xbc5e463e	-0.013566552
81	0xbc9aa22a	-0.018876154
82	0x3a0f13b8	0.00054579554
83	0x3ce1ba56	0.027554672
84	0x3c90fa7f	0.01769757
85	0xbc781a7d	-0.015143034
86	0xbc8b3da9	-0.016997175
87	0x3cace1fc	0.021103851
88	0xbc1747da	-0.009233439
89	0x3caebd0a	0.021330375
90	0xbc983957	-0.01858203
91	0xbcfcf80f	-0.030880002
92	0x3cc32569	0.02382155
93	0xbcd90692	-0.02649239
94	0xbc9700e1	-0.018433036
95	0xbcb54db9	-0.022131788
96	0xbd11e8a1	-0.035622243
97	0xba6d479a	-0.0009051502
98	0xbbacf869	-0.0052786362
99	0x3c1bfda6	0.009520924
100	0x3c9c268d	0.019061351
101	0x3cc5a794	0.024127759
102	0xbce3db63	-0.027814573
103	0x3cc5c6bc	0.024142615
104	0xbd050a18	-0.03248033
105	0xbc8a70ef	-0.016899554
106	0x3c5e8fb8	0.01358407
107	0x3c73205a	0.014839256
108	0x3aa96298	0.001292306
109	0x3c1b19c6	0.009466594
110	0xbcefac4b	-0.02925696
111	0x3d059cf1	0.032620374
112	0xbc7fb8a6	-0.015607988
113	0xbcaf7d5b	-0.021422079
114	0x3c1299d8	0.008947812
115	0xbbb7e2a1	-0.005611733
116	0x3c1571b1	0.009121344
117	0xbc065948	-0.008199997
118	0x3cbe115c	0.023201637
119	0xbbcb5e76	-0.006206329
120	0x3b93d9b3	0.0045120358
121	0xbd0b894e	-0.03406649
122	0x3d0d90ca	0.03456191
123	0xbc95ee99	-0.018302249
124	0xbc4becda	-0.0124466065
125	0x3d0a8f1a	0.03382788
126	0xbcf6b332	-0.030114744
127	0x3bd35360	0.006449148
128	0x3c9fe79a	0.019519616
129	0x3a9b5aee	0.0011852661
130	0x3c249210	0.01004459
131	0xbc526e54	-0.012843687
132	0x3c3269f2	0.010889517
133	0x3ae30bc5	0.0017322233
134	0x3c58f910	0.013242975
135	0xbb9f57fc	-0.0048627835
136	0x3a623fc3	0.0008630717
137	0xbd0f3c2d	-0.034969497
138	0xbc1dced4	-0.009631831
139	0xbd029da4	-0.03188862
140	0x3c9723fa	0.018449772
141	0xbcf9b427	-0.030481411
142	0xbbb36da8	-0.0054757185
143	0xbccad11b	-0.024757912
144	0xbc9b34cb	-0.018946072
145	0xbb37fdca	-0.0028074854
146	0xbb06e935	-0.002058578
147	0xbade1855	-0.0016944507
148	0xbceeed89	-0.029166
149	0xbc01a9f9	-0.00791406
150	0xbaae8c76	-0.0013317007
151	0x3cdb519c	0.026772313
152	0xbbf5b80c	-0.0074987467
153	0xbc9ae1d7	-0.018906517
154	0xbc5dd876	-0.013540378
155	0xbc455342	-0.012043776
156	0xbb8fa905	-0.0043841624
157	0x3cfc8af1	0.030827971
158	0xbcf5cfc7	-0.030006303
159	0x3c954bfe	0.018224712
160	0x3ca54572	0.020174716
161	0xbc383eb9	-0.011245423
162	0xbc2edfc6	-0.010673469
163	0xbc7017f6	-0.01465415
164	0xbcc1531f	-0.023599206
165	0x3ccd67dc	0.025073938
166	0xbb25f5fb	-0.0025323618
167	0xbd10d231	-0.035356704
168	0xbcb64f60	-0.022254646
169	0xbb2eb75f	-0.002665959
170	0xbc45a7ef	-0.012063964
171	0x3c389bb3	0.01126759
172	0x3ce2bc14	0.027677573
173	0xbc520186	-0.012817746
174	0xbcbfbbdc	-0.023405008
175	0xbc8e966b	-0.01740571
176	0xbc721265	-0.014774893
177	0xbce6b997	-0.028164668
178	0x3c403009	0.0117302025
179	0x3b0fe3e3	0.00219559
180	0xbcbd9973	-0.02314446
181	0xba81c690	-0.0009901095
182	0xbcc37c84	-0.023863085
183	0x3d099557	0.033589687
184	0xbbe795c5	-0.0070674145
185	0xbc1bba00	-0.009504795
186	0xbc995c2f	-0.018720714
187	0xbc90bd42	-0.01766837
188	0x3cf9875e	0.030460056
189	0x3d0538ce	0.032524876
190	0xbbd325dc	-0.006443722
191	0xbba97fbe	-0.0051726988
192	0x3cad23ec	0.021135293
193	0xbcafe514	-0.021471538
194	0xbcc5dda5	-0.02415354
195	0xbcaa0221	-0.020752968
196	0x3c8e2ceb	0.017355403
197	0x3c174f64	0.009235237
198	0xbba37905	-0.004988792
199	0xbcacc95c	-0.02109211
200	0x3b8eac9a	0.004354072
201	0x3c4f035b	0.012635077
202	0x3c4c9600	0.012486935
203	0x3c2e8607	0.010652072
204	0x3be14ccd	0.0068756104
205	0xbcda3e6c	-0.026641093
206	0x3cd515f6	0.026011448
207	0x3ca28c44	0.019842274
208	0x39c30107	0.00037194064
209	0xbc87ffd6	-0.016601484
210	0xbceb4144	-0.028717645
211	0x39908263	0.00027562966
212	0x3c8e99d6	0.017407339
213	0x3c4a0fd5	0.012332876
214	0x3cc0f363	0.023553556
215	0x3c9fbc4f	0.019498972
216	0xbb2a14e4	-0.0025952393
217	0x3c9d5fd1	0.019210728
218	0xbb668d6e	-0.0035179514
219	0x3c892077	0.016739113
220	0x3b0250b6	0.0019884533
221	0x3d0431c9	0.03227404
222	0xbc502ae0	-0.012705535
223	0x3b4fd28a	0.0031711184
224	0x3c397815	0.011320134
225	0xbcc64836	-0.024204355
226	0x3cd38e10	0.025824577
227	0xbce0ed6e	-0.027456965
228	0xbcef31e4	-0.029198594
229	0xb9f0d726	-0.00045936665
230	0xbbf96aef	-0.0076116244
231	0xbd0c6c8b	-0.034283202
232	0xbcb30014	-0.021850623
233	0x3c59d826	0.013296163
234	0x3cfdec5b	0.030996492
235	0xbc9103d8	-0.017702028
236	0xbceb94d5	-0.028757492
237	0x3bc39eeb	0.005969872
238	0x3cdf0f40	0.027228951
239	0x3c395a69	0.011313059
240	0xbb845499	-0.004038405
241	0x3c193ae7	0.009352422
242	0x3ca6ea0a	0.02037527
243	0xbd001b13	-0.03127582
244	0x3c5860ec	0.013206702
245	0x3c8544d8	0.016268179
246	0xbc885abd	-0.01664483
247	0x3cad1d4a	0.02113213
248	0x3b1ea22a	0.0024205544
249	0x3bb85768	0.005625654
250	0x3cfcc716	0.03085665
251	0xbc563a4b	-0.013075422
252	0x3ce9485d	0.028476888
253	0x3ba77d29	0.005111356
254	0x3ca85c5b	0.020551851
255	0x3bf5b302	0.007498146

base_model.model.model.layers.0.self_attn.q_proj.lora_B.weight f4 [896, 2]
0	0x3b3eb14d	0.0029097379
1	0x3b67fa1c	0.003539688
2	0x3b4b3255	0.0031005342
3	0x3b9943fd	0.0046772943
4	0x3b4f1a25	0.0031601277
5	0x3b20c72a	0.0024532774
6	0xbb29fc61	-0.0025937783
7	0xbb4cdc78	-0.003125934
8	0xbb6fbc19	-0.003658062
9	0xbb563f80	-0.0032691658
10	0xbb19031b	-0.0023347798
11	0x3b30ab72	0.0026957658
12	0x3aadea35	0.0013268652
13	0x3b4dec96	0.0031421534
14	0x3ab6fef2	0.0013961478
15	0xbb19a196	-0.002344226
16	0x3b603a71	0.0034214521
17	0x3a71b153	0.0009219844
18	0x3b31d85f	0.0027137024
19	0xb8c5cd35	-9.431915e-05
20	0xbb1fbac8	-0.0024372805
21	0x3a6c7b9a	0.00090211036
22	0x3b1dc4c2	0.0024073576
23	0x3a10df15	0.0005526406
24	0xbb07843e	-0.0020678188
25	0xbb6afabf	-0.0035855023
26	0xbb7e87e1	-0.0038838314
27	0xbae103c2	-0.0017167258
28	0x3b3228f0	0.0027185045
29	0x3b1fd6c9	0.0024389497
30	0xbb3e6fef	-0.0029058417
31	0xb9fa2c50	-0.0004771673
32	0x3b5eee92	0.003401671
33	0xbaa8252e	-0.0012828463
34	0xba2d47f9	-0.0006610151
35	0x3b9ef89e	0.004851415
36	0x3b017fe2	0.0019760062
37	0x3ba9996a	0.005175759
38	0x3ad36d27	0.0016130552
39	0x3b808ea5	0.0039232546
40	0x3b6135d6	0.0034364364
41	0x3a75dd32	0.0009378969
42	0x3b5eccfb	0.003399669
43	0x3a13f40f	0.00056439725
44	0x3b6c1a95	0.0036026586
45	0x37402ad1	1.1454061e-05
46	0xb84cbdf6	-4.8814305e-05
47	0x3ba34620	0.004982725
48	0x391ca368	0.00014938193
49	0x3b652a21	0.0034967738
50	0x3b31493c	0.0027051708
51	0xba372cfc	-0.0006987599
52	0x3b322fe5	0.0027189192
53	0xba06c913	-0.0005141657
54	0xbb891a10	-0.004184015
55	0xba9e2740	-0.0012066141
56	0x3b41c2b0	0.0029565506
57	0xbad35d52	-0.0016125834
58	0xbb589c94	-0.0033052312
59	0xba8d4099	-0.0010776698
60	0x3b4bb7b8	0.0031084847
61	0xb99550b8	-0.00028479635
62	0xbb7f1d9c	-0.003892756
63	0xbb8e0fb8	-0.00433537
64	0xbafc3262	-0.001924109
65	0x3abc4518	0.0014363853
66	0xbb455159	-0.0030108301
67	0xb960cd12	-0.000214387
68	0x3af1157a	0.0018393241
69	0x3b9b077e	0.0047311177
70	0x3b1d5ce4	0.0024011666
71	0xbb1267b7	-0.002233965
72	0x3b7b6f4b	0.0038365896
73	0x390b3aa1	0.00013277914
74	0xbb65a444	-0.0035040537
75	0xbaa4b1cd	-0.0012565196
76	0xbb1a001f	-0.0023498607
77	0x3a328af5	0.00068108673
78	0xba689bc0	-0.0008873306
79	0x3a003441	0.0004890599
80	0x3aa86434	0.0012847246
81	0x3bab9d18	0.005237233
82	0x3b79a9dd	0.0038095631
83	0x3a9ceafb	0.0011971885
84	0xbb3ec029	-0.0029106236
85	0xb7abd274	-2.0482788e-05
86	0xbb59b19c	-0.0033217436
87	0xba0de024	-0.00054121227
88	0x39da6601	0.000416562
89	0xbb3ad7d3	-0.002850999
90	0x3a728b4f	0.0009252326
91	0xb9ce1ed9	-0.00039314365
92	0xb903792c	-0.00012538274
93	0x3b34a0da	0.0027561695
94	0x3b1dc25f	0.0024072153
95	0xbac293d3	-0.001484508
96	0xbb328758	-0.0027241316
97	0x3a214235	0.0006151528
98	0xbb2e1405	-0.0026562226
99	0x3a16a509	0.0005746638
100	0x3a6ad195	0.0008957622
101	0x3ba2f497	0.004973005
102	0x3b36c68d	0.0027889342
103	0xba93d29c	-0.0011277976
104	0x3b63213d	0.0034657263
105	0x3a00beb8	0.0004911232
106	0xbb58535d	-0.0033008673
107	0xb94cafe2	-0.00019520478
108	0xbb7b7d37	-0.0038374194
109	0xbaf928e9	-0.0019009385
110	0xbb996807	-0.0046815905
111	0xbacebaa6	-0.0015772178
112	0xb947bda8	-0.00019048771
113	0x3b0d97e9	0.0021605438
114	0x3b903049	0.0044002873
115	0x3b32bac7	0.0027271973
116	0x3b5e20b1	0.0033893997
117	0x39c158b2	0.00036877912
118	0x3b4db042	0.0031385575
119	0x3a1b2fe4	0.0005919917
120	0xbb4e7401	-0.003150225
121	0x3a24a456	0.00062805915
122	0xbb62c488	-0.0034602005
123	0xba918b04	-0.0011104052
124	0x3ba27b30	0.0049585328
125	0x3baafba6	0.005217987
126	0x3ae2ffee	0.0017318705
127	0x3bbc92b2	0.005754792
128	0xbb69fae7	-0.0035702528
129	0xbbaa1e44	-0.005191596
130	0xbb9435f6	-0.004523034
131	0xbba48ada	-0.005021435
132	0xb95221d0	-0.00020039757
133	0xbb623902	-0.0034518843
134	0x3bc69267	0.006059933
135	0x3bca6133	0.006176138
136	0x3bc260f1	0.0059319665
137	0x3bd4e893	0.0064974516
138	0xbb8c0a32	-0.0042736763
139	0xbb63c81a	-0.003475672
140	0xbb9ada3d	-0.004725723
141	0xbb6e4038	-0.0036354195
142	0x3b6e090d	0.0036321313
143	0x3b01de6b	0.001981641
144	0xbbaf827b	-0.0053561307
145	0xbbd52580	-0.0065047145
146	0xbb887fc3	-0.004165621
147	0xbbb11224	-0.005403774
148	0x3bb5d9bf	0.005549639
149	0x3bbc14f5	0.005739803
150	0xbbbde7ed	-0.00579547
151	0xbbbeef99	-0.005826902
152	0x3bab241a	0.0052228095
153	0x3b9a537a	0.004709658
154	0x3bb73a83	0.005591692
155	0x3bd13ea4	0.006385641
156	0xbbb39862	-0.005480812
157	0xbba0af3c	-0.004903702
158	0x3bbd43b6	0.005775894
159	0x3bd860cc	0.006603336
160	0xbb4263ea	-0.0029661604
161	0xbbaa8d78	-0.0052048527
162	0x3b49e6df	0.0030807776
163	0x3b63ef3d	0.0034780048
164	0xbbb23dd4	-0.0054394994
165	0xbbc17cc2	-0.005904765
166	0xbbb13b0e	-0.005408651
167	0xbbab24ce	-0.0052228933
168	0xbbc91bda	-0.0061373534
169	0xbbd3a9ea	-0.0064594643
170	0xbbc5c591	-0.0060355146
171	0xbbd6f390	-0.0065597966
172	0xbbcada91	-0.006190606
173	0xbbcbe3ac	-0.006222209
174	0x3b34fbe3	0.0027615956
175	0x3b3d1318	0.0028850492
176	0x3b5f7bfb	0.0034100998
177	0x3b9472ed	0.004530302
178	0xbbbadcb3	-0.005702579
179	0xbbcdf62a	-0.0062854486
180	0xbbc26e91	-0.0059335907
181	0xbbd3d988	-0.0064651407
182	0x3bcaa702	0.0061844597
183	0x3bae7bd1	0.0053248187
184	0xbba41eda	-0.0050085606
185	0xbbb77444	-0.0055985767
186	0x3bd4bc8b	0.0064922026
187	0x3bda81f8	0.0066683255
188	0xbbc47e11	-0.0059964736
189	0xbbd303fc	-0.006439684
190	0x3bdfa242	0.0068247626
191	0x3bb779cc	0.005599236
192	0xbba0959b	-0.004900647
193	0xbbd3c2ba	-0.006462422
194	0xbb8b4e13	-0.0042512505
195	0xbb882b19	-0.0041555283
196	0xbbc88e09	-0.0061204475
197	0xbbc89a3c	-0.006121902
198	0x3b8bb44a	0.0042634355
199	0x3b3f9229	0.0029231405
200	0xbb9480ef	-0.0045319716
201	0xbbc529ab	-0.00601693
202	0x3ba9a898	0.0051775686
203	0x3ba579e6	0.005049932
204	0x3b561a80	0.0032669604
205	0x3ba4ac3f	0.005025416
206	0xbb8b621b	-0.0042536384
207	0xbb642e41	-0.0034817609
208	0xbbaead32	-0.005330705
209	0xbb88856e	-0.0041662967
210	0xbb892689	-0.004185502
211	0xbbb67cc5	-0.005569073
212	0x3ba1e67b	0.0049408055
213	0x3bcb58f7	0.006205674
214	0x3ba67ab9	0.0050805476
215	0x3bcf1fa6	0.0063209115
216	0x3b8d0484	0.004303517
217	0x3b4a6ffa	0.0030889497
218	0x3ba23ac9	0.0049508554
219	0x3b282ce8	0.0025661532
220	0xbb95bc4d	-0.0045695663
221	0xbb5f1deb	-0.0034044932
222	0xbb5cc9e9	-0.0033689684
223	0xbba93c7f	-0.0051646824
224	0x3bb149bd	0.0054104016
225	0x3bcc54ed	0.00623571
226	0x3b616d5c	0.0034397459
227	0x3bc6e79b	0.00607009
228	0xbb5ffed5	-0.0034178991
229	0xbb2bbf6a	-0.002620662
230	0xbb4d06c5	-0.0031284553
231	0xbb90a0d9	-0.004413706
232	0xbbd3a077	-0.006458338
233	0xbbd49484	-0.006487431
234	0x3bbbe170	0.0057336614
235	0x3bc92f1b	0.0061396486
236	0x3bc560b4	0.006023491
237	0x3bd3f744	0.0064686853
238	0x3b985eca	0.0046499716
239	0x3b9f556c	0.004862478
240	0x3bb01d93	0.0053746193
241	0x3ba565ef	0.005047552
242	0xbbc6865f	-0.0060584988
243	0xbbd3179c	-0.0064420234
244	0xbbcbe0f5	-0.0062218853
245	0xbbd65d2f	-0.00654187
246	0xbbc60200	-0.006042719
247	0xbbd7f652	-0.006590643
248	0x3bc6349d	0.0060487525
249	0x3bc36233	0.005962634
250	0x3bd486b3	0.006485784
251	0x3bde7b8d	0.0067896307
252	0xbba9e8f7	-0.0051852423
253	0xbb1e8efb	-0.002419411
254	0xbba60cb3	-0.005067432
255	0xbb48ac0d	-0.0030620128

base_model.model.model.layers.1.self_attn.q_proj.lora_A.weight f4 [2, 896]
0	0x3bdae85a	0.0066805305
1	0x3c3b20c5	0.011421387
2	0x3cdf526d	0.027260983
3	0x3b8604c7	0.004089925
4	0x3c19a774	0.009378303
5	0x3cb9f2cf	0.022698788
6	0xbb6f3334	-0.0036499025
7	0xbc27a875	-0.010233034
8	0x3bdf2320	0.006809607
9	0x3bcef12b	0.0063153706
10	0x39ee98ec	0.00045508833
11	0xbc929c73	-0.017896866
12	0x3c9a7401	0.018854143
13	0xbcb7f313	-0.022454774
14	0x3c937c8e	0.018003728
15	0xbcf12f48	-0.02944149
16	0xbbda0790	-0.0066537336
17	0xbce29453	-0.027658617
18	0xbcfeccea	-0.03110357
19	0xbcc59474	-0.02411864
20	0xbb6ddf29	-0.0036296344
21	0xbb9d704b	-0.004804646
22	0x3b85c35f	0.004082128
23	0xbbb9d6a9	-0.0056713414
24	0x3c4660af	0.012108012
25	0xbcb1c987	-0.021702541
26	0xbcb66e68	-0.022269443
27	0xbcdc71a4	-0.026909657
28	0xbc33eddc	-0.010982003
29	0xbcaa191b	-0.020763924
30	0x3b3ca4f6	0.0028784848
31	0x3ca853f7	0.02054785
32	0xbcd3849f	-0.025820075
33	0x3c671bb7	0.014105729
34	0xbc2efbe7	-0.010680175
35	0xbb63f2e2	-0.003478222
36	0x3c1251ab	0.008930604
37	0xbc66cabb	-0.014086421
38	0x3c5c7254	0.013454992
39	0xbcdcc2e3	-0.026948398
40	0x3cfcaddd	0.030844623
41	0x3d13a074	0.036041692
42	0x3bd1adf5	0.006398911
43	0xbcdc9689	-0.02692725
44	0xbbd11bde	-0.006381496
45	0xbc4a1ddf	-0.012336223
46	0x3c8d9583	0.017283207
47	0xbaf0d3bc	-0.0018373649
48	0x3c7a1b3c	0.015265282
49	0xbc0f0eab	-0.008731524
50	0xbb33f18e	-0.002745721
51	0x3bfbfd83	0.007690133
52	0x3c9ccaa1	0.01913959
53	0x3bf0c04e	0.0073471433
54	0x3cb1d394	0.021707334
55	0x3cd43f5a	0.025909115
56	0xbcc9ee88	-0.024649873
57	0xbc775635	-0.015096237
58	0x3c8b0e6b	0.016974648
59	0x39211ba0	0.00015364448
60	0xbc95d591	-0.018290313
61	0xbcdb06d1	-0.026736649
62	0x3b403c9c	0.0029333
63	0x3ccff9e8	0.02538772
64	0xbce7ba41	-0.028287055
65	0xbce137c1	-0.027492406
66	0x3d04afff	0.032394405
67	0xbc6615b7	-0.014043263
68	0xbd01cb93	-0.031688284
69	0x3c24c5b5	0.010056903
70	0xbc76e698	-0.015069626
71	0x3ca11d44	0.019667275
72	0x3c81590b	0.01578953
73	0x3c2abe38	0.010421328
74	0x3cba4052	0.022735748
75	0x3c9e6042	0.019333009
76	0x3c16a1d4	0.009193856
77	0xbbf8c1a5	-0.0075914436
78	0xbc207615	-0.009793778
79	0xbb91c993	-0.0044490783
80	0x3d0b51d3	0.03401358
81	0xbcbdb2ba	-0.023156513
82	0x3c8694dc	0.016428404
83	0x3c77aeed	0.015117389
84	0x3ccd0fea	0.025032002
85	0x3c944020	0.018096983
86	0x3b258764	0.00252577
87	0xbc021273	-0.007938969
88	0x3d020aed	0.0317487
89	0x39936f3b	0.00028120898
90	0xbc7558e9	-0.014974811
91	0x3c3b5486	0.011433726
92	0x3cd690dc	0.026192121
93	0x3d0079b3	0.03136606
94	0x3c021703	0.007940057
95	0x3c365552	0.01112874
96	0xbc46d4ae	-0.012135668
97	0xbbeff903	-0.0073233857
98	0xbc086e67	-0.008327103
99	0x3d06c4f6	0.03290268
100	0xba83f25f	-0.0010066739
101	0x3c755d13	0.014975804
102	0x3cc3d726	0.023906302
103	0xbca5ce04	-0.020239837
104	0xbc2f7ab5	-0.010710408
105	0xbd0eda99	-0.03487644
106	0x3d1d9b52	0.038478203
107	0x3c832684	0.016009577
108	0x3cd3dfaf	0.025863497
109	0xbc98cdb4	-0.018652774
110	0x3b2d913f	0.0026484278
111	0x3a8cfe96	0.0010757025
112	0xbca7b78f	-0.02047327
113	0x3cf3739c	0.029718213
114	0x3c578d34	0.013156224
115	0x3cf7190e	0.030163314
116	0x3c53fe88	0.012939103
117	0xbc850891	-0.016239436
118	0x3bb22a17	0.0054371464
119	0x3c81934d	0.015817309
120	0x3c0dcf60	0.008655399
121	0x3c67c7a8	0.014146723
122	0xbba1dcb2	-0.004939639
123	0xbbb8727f	-0.0056288834
124	0x3cdc8eb1	0.02692351
125	0xbcc7180f	-0.024303464
126	0x3c900d0f	0.017584352
127	0x3cf818d2	0.030285273
128	0xbce6a700	-0.028155804
129	0x3d0a6472	0.0337872
130	0xbd0a984a	-0.03383664
131	0xbc2d2af4	-0.010569323
132	0x3afdd50d	0.0019365862
133	0xbbaeaf7d	-0.0053309784
134	0xbcc47d67	-0.023985578
135	0xbc29498c	-0.010332476
136	0xbb10bde0	-0.002208583
137	0xbcbd9baa	-0.023145515
138	0x3c645ab8	0.013937645
139	0x3b58ccf5	0.0033081148
140	0x3ccc643a	0.024950135
141	0xbb1cd1f5	-0.0023928855
142	0x3caff285	0.021477947
143	0x3cca70d5	0.024712006
144	0xbc8595ac	-0.01630672
145	0xbd17b3bd	-0.037036646
146	0x3c8e299a	0.017353822
147	0xbc454cb9	-0.012042218
148	0x3be6af60	0.0070399493
149	0x3b9181c2	0.004440517
150	0xbc705997	-0.014669797
151	0x3bc2e049	0.005947147
152	0xbc74f3a2	-0.014950665
153	0xbbf6ef59	-0.0075358567
154	0xbc2cb0cc	-0.010540199
155	0xbc0b6588	-0.008508094
156	0x3cd078b7	0.025448186
157	0xbc819c52	-0.01582161
158	0x3c2b7418	0.010464691
159	0x3ba99ac2	0.0051759193
160	0xbbeddce7	-0.0072589996
161	0xbbb3b8bc	-0.0054846685
162	0xbc9a9d71	-0.018873902
163	0xbba84020	-0.0051345974
164	0xbc0ab4ca	-0.008465955
165	0xbcaf8552	-0.021425877
166	0xbcc05783	-0.023479229
167	0x3be507af	0.0069894413
168	0xbc44f7df	-0.012021988
169	0xbc7e30d3	-0.01551457
170	0x3b909a09	0.0044128937
171	0x3cb6ff77	0.022338612
172	0xbb938a11	-0.004502543
173	0x3c8b66d3	0.017016804
174	0xbbfdc36b	-0.007744243
175	0xbcb5909e	-0.022163685
176	0xbcdcb27d	-0.026940579
177	0xbce9ac9a	-0.028524686
178	0x3c7c5724	0.015401635
179	0xbd1010b6	-0.035172187
180	0x3d0d79a8	0.03453985
181	0xbbcdf2a0	-0.0062850267
182	0xbccb51c2	-0.024819259
183	0xbd065d8d	-0.03280406
184	0x3cf1859b	0.029482653
185	0x3cb696ae	0.022288647
186	0x3c9e1ff3	0.019302344
187	0x3c4b40b2	0.012405561
188	0xbc865487	-0.016397728
189	0xbc757179	-0.014980667
190	0x3cee1482	0.029062513
191	0xbcf36adf	-0.029714046
192	0xbc826a64	-0.015919872
193	0xbd0482a4	-0.03235115
194	0x3d075ed9	0.03304944
195	0xbd1f80de	-0.038941257
196	0xbc139fe4	-0.009010289
197	0xbc6e514a	-0.014545748
198	0x3c9b92da	0.018990923
199	0xbb244263	-0.0025063984
200	0x3ca7d8fa	0.020489205
201	0x3caec5f5	0.021334628
202	0x3b102f8f	0.0022001003
203	0x3b88eb0a	0.0041784095
204	0x3c658a04	0.014009956
205	0xbcba85f1	-0.022768946
206	0x3cbad0c6	0.022804629
207	0xbcf892a1	-0.030343356
208	0xbcfbdba8	-0.030744389
209	0x3ca8ad07	0.020590318
210	0x3c96318a	0.018334169
211	0xbd07b2f2	-0.03312964
212	0x3b342f6a	0.0027494081
213	0xbc34d37b	-0.011036749
214	0xbbe820f0	-0.0070840046
215	0x3b50e77f	0.0031876264
216	0xbcb21a9e	-0.021741208
217	0xbc985775	-0.01859639
218	0xbc254a59	-0.010088527
219	0x3c99ccb3	0.018774366
220	0xbc460fd1	-0.012088732
221	0x3c91a91b	0.017780831
222	0xbcf6eb3c	-0.030141465
223	0xbcc32d89	-0.023825424
224	0xbd11de5b	-0.035612445
225	0x3cb2ce2d	0.021826828
226	0xbc9ac7d7	-0.01889412
227	0x39c58505	0.00037673875
228	0xbc26d542	-0.010182681
229	0x3ccedea3	0.025252646
230	0x3b8c2d95	0.0042778947
231	0xbcc6b55e	-0.024256404
232	0xbce01f1c	-0.027358584
233	0xbd08810f	-0.033326205
234	0x3bd6cded	0.00655531
235	0x3ce01507	0.027353777
236	0xbcd979ea	-0.026547391
237	0xbba7454f	-0.005104698
238	0xbac2fb23	-0.001487587
239	0xbb2c0bde	-0.002625219
240	0xbc8209a5	-0.01587374
241	0x3cea1201	0.028573038
242	0x3af6c658	0.0018827422
243	0x3cda4b3f	0.026647208
244	0x3c171eb9	0.009223633
245	0xbc22da0f	-0.0099396845
246	0xbc74d9d3	-0.0149445115
247	0xbd07808a	-0.03308157
248	0x3cd31279	0.025765644
249	0x3bab6123	0.0052300855
250	0x3cb0c7ce	0.02157965
251	0xbcaee055	-0.021347204
252	0x3bac6cb8	0.0052619837
253	0x3c893f2e	0.01675376
254	0x3bb0e758	0.005398672
255	0x3c98572e	0.018596258

base_model.model.model.layers.1.self_attn.q_proj.lora_B.weight f4 [896, 2]
0	0x3bf63440	0.007513553
1	0x3befbf3e	0.007316499
2	0xbbee49ae	-0.007271967
3	0xbbde5334	-0.006784821
4	0xbbf61e54	-0.0075109396
5	0xbbfa239b	-0.007633639
6	0x3bf3d20e	0.007440812
7	0x3be0c905	0.006859901
8	0x3bfc4d69	0.0076996577
9	0x3bdfd2dc	0.0068305563
10	0xbbf31a88	-0.0074189343
11	0xbbf07c77	-0.007339056
12	0x3bea389e	0.0071478626
13	0x3bb6fa3f	0.005584031
14	0xbbed7e7e	-0.007247745
15	0xbbef3cf2	-0.0073009664
16	0xbbf579d3	-0.007491329
17	0xbbcd7d45	-0.006271037
18	0xbbf4dbb0	-0.007472478
19	0xbbf6aaa1	-0.007527665
20	0x3bda2d65	0.0066582435
21	0x3bc8d4e9	0.0061288965
22	0x3baa12c0	0.0051902235
23	0x3bc6bc32	0.006064915
24	0x3bfc749f	0.007704332
25	0x3beb6b3a	0.0071844133
26	0xbbfc14dc	-0.0076929163
27	0xbbfb88f6	-0.007676239
28	0xbbf7091e	-0.0075389287
29	0xbbfad03e	-0.007654219
30	0xbbf7c4d8	-0.0075613074
31	0xbbe09777	-0.0068539935
32	0xbbfa1849	-0.0076322895
33	0xbbfae900	-0.0076571703
34	0x3bf53737	0.0074833888
35	0x3bbf6dc2	0.0058419416
36	0x3b9cee6a	0.0047891634
37	0xba83c1f5	-0.001005231
38	0xbba17e4b	-0.0049283854
39	0x3aaebe49	0.0013331856
40	0xbbfa3a1c	-0.0076363217
41	0xbbf8156f	-0.0075709145
42	0xbbf5ae4c	-0.0074975844
43	0xbbe4cf8b	-0.006982749
44	0xbbab04c0	-0.005219072
45	0xbbbeac80	-0.0058189034
46	0xbbfab3ee	-0.007650844
47	0xbbee343d	-0.007269411
48	0x3b6c4fdb	0.003605834
49	0x3bd93f84	0.006629886
50	0xbbf51f12	-0.0074805105
51	0xbbf118e4	-0.0073577035
52	0x3bf09b3e	0.007342725
53	0x3beec0f3	0.007286185
54	0xbba81902	-0.0051299343
55	0xbb125b7f	-0.0022332368
56	0xbbdd4d4f	-0.0067536007
57	0xbbe48467	-0.0069737914
58	0xbbfd99d9	-0.0077392873
59	0xbbef24a6	-0.00729807
60	0x3bd90552	0.0066229487
61	0x3b9d038e	0.0047916835
62	0x3bf39e66	0.007434654
63	0x3bfbdec5	0.0076864683
64	0x3bf4bfc5	0.00746915
65	0x3bf942f5	0.007606859
66	0xbbbfb69e	-0.005850627
67	0xbba5794f	-0.0050498615
68	0xbbee7be8	-0.0072779544
69	0xbbf9a5ac	-0.0076186266
70	0xbb1ff5d2	-0.0024407995
71	0x39d4a0ce	0.000405556
72	0xbb7bda9b	-0.003842986
73	0xbb6a3bda	-0.003574124
74	0x3bbe566d	0.0058086426
75	0x387e07aa	6.0565457e-05
76	0x3bd736e8	0.0065678246
77	0x3b8e9656	0.0043514175
78	0x3bf7c9c9	0.0075618965
79	0x3bf9049a	0.0075994255
80	0x3bde799a	0.0067893984
81	0x3bc9ecd3	0.006162265
82	0x3bf7ac8a	0.00755841
83	0x3bbc9861	0.0057554697
84	0x3bf9903f	0.0076160724
85	0x3bfb3472	0.007666164
86	0xbba67b35	-0.0050806054
87	0xbbf179ec	-0.0073692705
88	0xbbfa23df	-0.0076336707
89	0xbbf678e1	-0.007521734
90	0xbbfaceb6	-0.0076540364
91	0xbbe0126f	-0.006838135
92	0x3bbea270	0.005817704
93	0x3babad2b	0.005239149
94	0xbbf3b7a0	-0.0074376613
95	0xbbe68b21	-0.0070356284
96	0x3bf98f39	0.0076159504
97	0x3bcf3946	0.006323966
98	0xbb90af21	-0.0044154082
99	0x3b1a30c1	0.0023527595
100	0x3a074ba2	0.00051611115
101	0xbb72e088	-0.00370601
102	0xbbf552e4	-0.007486688
103	0xbbf50b27	-0.007478136
104	0xbbfc2d5d	-0.0076958374
105	0xbbeebfb7	-0.007286038
106	0xbbedab6c	-0.007253101
107	0xbb971512	-0.004610666
108	0x3998ed8a	0.0002916868
109	0xbbab1b75	-0.005221779
110	0xbbc864c3	-0.0061155274
111	0xbbb0c0e3	-0.0053940876
112	0xbbf892ec	-0.007585874
113	0xbbe5724d	-0.007002151
114	0x3bfe036e	0.0077518737
115	0x3bce5608	0.006296877
116	0x3bc75074	0.006082589
117	0x3bbfb666	0.005850601
118	0x3be0641a	0.0068478705
119	0x3be989bb	0.0071270145
120	0xbad7c62e	-0.001646226
121	0xbb85989c	-0.0040770303
122	0x3ad7cdb0	0.0016464498
123	0x3bb0d36c	0.005396297
124	0xbbfb4051	-0.007667579
125	0xbbfa63b8	-0.007641282
126	0xbbf57882	-0.0074911723
127	0xbbfaaca1	-0.0076499735
128	0xbb02baa8	-0.0019947682
129	0xbb8e5267	-0.004343319
130	0x3b887624	0.004164474
131	0x3b2597bc	0.0025267443
132	0xbbe0480d	-0.0068445266
133	0x3b066dc2	0.0020512198
134	0x3a8793af	0.0010343696
135	0x3b8a7118	0.0042249076
136	0x3b3183db	0.0027086649
137	0x3b764af6	0.0037581301
138	0xbb268faa	-0.002541522
139	0xba0cb8b1	-0.00053680973
140	0xb8751029	-5.8427602e-05
141	0x3b3dd8da	0.0028968365
142	0xbb94fa89	-0.0045464677
143	0xbb30a9e8	-0.002695674
144	0xb9b8219d	-0.0003512026
145	0xba597062	-0.00082946394
146	0x3b5200c1	0.0032043906
147	0xbb08d4b5	-0.0020878736
148	0x3b4f3514	0.003161733
149	0x3b93423f	0.004493981
150	0x3af90872	0.0018999709
151	0xba4c2398	-0.00077872863
152	0xbb165b48	-0.0022942591
153	0xbabc00a2	-0.001434345
154	0x3a03ea1c	0.00050321384
155	0x3a8c8b27	0.0010722623
156	0x3b6b0203	0.0035859353
157	0x3ae908a3	0.0017779063
158	0x3b11a390	0.0022222735
159	0x3b1b1064	0.0023660893
160	0x3a2e85b3	0.0006657496
161	0xbb8d4ba1	-0.004311994
162	0x3ad1471d	0.0015966628
163	0xbb29028b	-0.002578887
164	0xbb195afb	-0.0023400176
165	0x3b882605	0.004154923
166	0x3b32be94	0.0027274238
167	0xbb19c2de	-0.0023462097
168	0xbb9d7b58	-0.0048059635
169	0xbb2fb9cb	-0.0026813622
170	0xbb3ca747	-0.0028786229
171	0xba245847	-0.0006269258
172	0xbb018969	-0.001976574
173	0x3a551d3b	0.0008129661
174	0xba467760	-0.0007570889
175	0xbac43add	-0.0014971156
176	0xbb98dc1d	-0.0046649114
177	0xbb0e2cde	-0.0021694223
178	0xbb51376a	-0.0031923898
179	0x3b22bb1b	0.0024830762
180	0x3af5ea41	0.001876183
181	0x3b70cbc9	0.003674256
182	0x3b9d9902	0.0048094997
183	0xb9049f84	-0.00012647925
184	0xbb4d1b11	-0.003129665
185	0x3af5c7c7	0.0018751555
186	0x3b50bacd	0.0031849623
187	0xba721bf5	-0.00092357333
188	0x3a1e43b8	0.00060373126
189	0xbaa6a637	-0.0012714331
190	0x3b2d0fd2	0.0026407135
191	0x3b7241c7	0.0036965476
192	0x3af213ec	0.0018469072
193	0xb82d24e5	-4.1280775e-05
194	0xba752733	-0.00093518494
195	0xbb411062	-0.0029459228
196	0xbb8e1bbd	-0.0043368028
197	0xba89225c	-0.001046251
198	0x3b96ca6e	0.004601768
199	0x3a474619	0.0007601693
200	0xba9b57ac	-0.001185169
201	0xbab13a47	-0.0013521396
202	0x3ab21811	0.0013587495
203	0x3aa39eae	0.0012483203
204	0x3ba387f0	0.0049905702
205	0xb9e64a72	-0.00043924485
206	0x3bd22247	0.0064127776
207	0x3b0e69c2	0.0021730517
208	0x3ab117a7	0.0013511077
209	0x3ad8b4ee	0.0016533413
210	0x3b969009	0.004594807
211	0x3bbc335b	0.0057434267
212	0x3b2fdc23	0.0026834093
213	0x3beb40b6	0.007179345
214	0xbb48273a	-0.003054096
215	0xb95396b8	-0.00020178675
216	0xbbbe7553	-0.005812326
217	0x3ab2e763	0.0013649281
218	0xbb66d8e4	-0.0035224492
219	0xbb663838	-0.0035128724
220	0xba745b2c	-0.0009321447
221	0x3b942405	0.0045208954
222	0xbb947fc7	-0.004531834
223	0x3b84a809	0.0040483517
224	0xbb711962	-0.003678881
225	0xbb764943	-0.0037580288
226	0xb996c4d7	-0.00028756887
227	0xbabe8e91	-0.0014538338
228	0x3b45bf43	0.0030173815
229	0x3b1f08f9	0.0024266823
230	0x3b29aa5b	0.0025888893
231	0x38985f89	7.2657196e-05
232	0x3a8717b8	0.0010306751
233	0x3b503e0f	0.003177527
234	0xba196869	-0.0005852045
235	0x3b38105f	0.002808593
236	0x3a3270c2	0.00068069634
237	0x3aa44552	0.0012532866
238	0xbadb0d33	-0.0016712308
239	0xbae6ce6b	-0.0017609125
240	0xb998445b	-0.00029042628
241	0xbbaaa1f5	-0.005207295
242	0x384c7e1d	4.8754842e-05
243	0x399281d0	0.00027944008
244	0x3b018507	0.0019763128
245	0x3af1bfdc	0.0018444019
246	0x3b8d22fc	0.004307149
247	0xbb5801ca	-0.003296005
248	0x3a2db368	0.000662616
249	0xba1f217c	-0.0006070358
250	0x3b60ca9f	0.003430046
251	0x397ef31b	0.00024313891
252	0x3aee4ab7	0.0018180226
253	0xbb111794	-0.0022139298
254	0xbb8ef3cc	-0.004362559
255	0xbb9eaebf	-0.0048426087

base_model.model.model.layers.10.self_attn.q_proj.lora_A.weight f4 [2, 896]
0	0xbc60ef05	-0.013728862
1	0xbd070e45	-0.032972593
2	0x3922aedb	0.00015514663
3	0xbcc50aef	-0.024053065
4	0x3ce3c8f2	0.02780578
5	0x39f9dfb0	0.0004765964
6	0x3c259476	0.010106197
7	0xbd027dac	-0.03185813
8	0x3ca8206a	0.020523269
9	0xbbc2c746	-0.0059441654
10	0x3ca44f02	0.020057205
11	0xbcd5b29a	-0.02608614
12	0x3b91eb46	0.0044530956
13	0x3d0dd514	0.034627035
14	0xbc826418	-0.015916869
15	0xbd03c5d4	-0.032171085
16	0xbcc0d660	-0.023539722
17	0x3bf0d7ea	0.0073499577
18	0xbcb30880	-0.021854639
19	0x3b395269	0.002827788
20	0xbc69b4dc	-0.014264312
21	0xbc1a0229	-0.009399929
22	0xbc84cdd9	-0.016211437
23	0xbc68efe6	-0.0142173525
24	0x3ceae25f	0.028672395
25	0x3bb62450	0.005558528
26	0x3c607627	0.013700045
27	0xbc99a7f8	-0.018756852
28	0x3c73b76f	0.014875277
29	0x3aa2f228	0.0012431787
30	0xbb8f31b4	-0.0043699387
31	0x3b92a9e2	0.004475818
32	0x3c28a389	0.010292896
33	0xbc44f16c	-0.01202045
34	0x3c8cfffe	0.01721191
35	0x3b83521b	0.0040075905
36	0xbcd663af	-0.02617058
37	0x3bd3af52	0.006460109
38	0xbb564711	-0.0032696167
39	0x3d047c15	0.032344896
40	0x3b03607c	0.0020046523
41	0xbc8af5c6	-0.016962897
42	0x3ae25858	0.001726876
43	0x3b05ba74	0.0020405324
44	0x3d08eaed	0.033427168
45	0x3cb4cf11	0.022071393
46	0xbcc7dbaa	-0.024396736
47	0xbcfbe3c0	-0.030748248
48	0xbcfe1b20	-0.031018794
49	0x3ba16d6a	0.0049263733
50	0xbcaadc87	-0.020857109
51	0xbd147ca7	-0.03625169
52	0x3d1b9945	0.037987966
53	0x3cebe8a2	0.028797451
54	0xbce0b405	-0.02742959
55	0x3c89bcac	0.016813599
56	0x3b42a302	0.002969921
57	0xbc03d048	-0.008045264
58	0x3c749031	0.014926956
59	0xbc10e3b2	-0.008843349
60	0xbcd1acba	-0.025595058
61	0xbcda7a33	-0.026669597
62	0xbc554b84	-0.013018493
63	0x3d00baa5	0.031427998
64	0x3ced81a3	0.02899248
65	0x3cd5abe2	0.026082937
66	0xbc129d13	-0.008948582
67	0xbc8016bd	-0.015635842
68	0x3d0399cc	0.032129094
69	0xbc97071f	-0.018436013
70	0x3c202632	0.0097747315
71	0x3c91f74c	0.017818116
72	0x3c680e8c	0.0141636245
73	0x3ce66e6f	0.02812883
74	0x3bac7fdf	0.005264267
75	0xbc804a44	-0.015660413
76	0xbcc5fded	-0.024168933
77	0xbbfc73a7	-0.0077042165
78	0xbc44e1b6	-0.012016704
79	0x3c167373	0.009182799
80	0xbccb674e	-0.024829533
81	0x3cedd6d0	0.029033095
82	0xbc26d183	-0.010181787
83	0x3cf1790f	0.02947667
84	0x3cb8a494	0.022539414
85	0xbd0eaf1a	-0.03483496
86	0xbbdadbd2	-0.0066790367
87	0xbc58ca26	-0.01323179
88	0x3ce68281	0.028138401
89	0xbcd8eef7	-0.026481135
90	0x3cf2a480	0.029619455
91	0xbc9d3450	-0.019189984
92	0x3b62d086	0.0034609153
93	0x3c1611fc	0.009159561
94	0xbba88f92	-0.005144068
95	0xbc744562	-0.01490912
96	0xbca14c85	-0.019689808
97	0xbd087e67	-0.03332367
98	0xbb6863de	-0.0035459916
99	0x3c3a7d2a	0.0113823805
100	0x3cc87264	0.024468608
101	0x3c14f5dd	0.0090918215
102	0x3ceb1a0d	0.028698945
103	0x3849acc8	4.808305e-05
104	0x3b9737a9	0.0046147895
105	0x3c0f9c83	0.008765343
106	0x3c4f931d	0.012669352
107	0x3cfc6ee6	0.0308146
108	0xbc038a93	-0.008028644
109	0xbc65f423	-0.0140352575
110	0x3b68d840	0.0035529286
111	0x3cf0a7eb	0.029376945
112	0x3cef97f0	0.029247254
113	0x3c674db9	0.014117652
114	0x3c3f0318	0.011658452
115	0x3c5a5b58	0.013327442
116	0x3cf63298	0.030053422
117	0xbc931028	-0.01795204
118	0x3cb8a379	0.022538887
119	0xbbbd2da1	-0.0057732617
120	0x3bb6b896	0.0055762036
121	0xbd1172f6	-0.035510026
122	0x3a03dd72	0.00050302513
123	0x3adbc4d4	0.0016767033
124	0xbcb59c22	-0.022169176
125	0xbb77d5e4	-0.0037816698
126	0xbca86e29	-0.020560341
127	0x3c046561	0.008080811
128	0xbca287a2	-0.019840065
129	0x3ce61afe	0.028089043
130	0x3ce8ca3f	0.028416751
131	0xbcebfab0	-0.02880606
132	0xbcb5ffb5	-0.022216657
133	0x3c3a8e52	0.011386471
134	0xbc993989	-0.018704193
135	0xbc726909	-0.01479555
136	0x3c1b988c	0.009496819
137	0x3af7bd90	0.0018901099
138	0xbb55d975	-0.0032630835
139	0xbc7248ed	-0.014787895
140	0x3c1b7361	0.009487958
141	0x3c42ed11	0.011897341
142	0x3ba6fd24	0.0050960947
143	0x3cddf44a	0.027094025
144	0xbbb9be4d	-0.0056684376
145	0x3ca3ceb4	0.019996025
146	0xbba78c67	-0.005113173
147	0x3a30ee0f	0.00067493407
148	0xbb7547b9	-0.0037426783
149	0xbc4efc16	-0.012633344
150	0x3c9d4315	0.019197026
151	0x3baab64b	0.0052097193
152	0xbb86f92a	-0.004119058
153	0xbbb4a0c3	-0.0055123284
154	0x3b9ebafb	0.004844067
155	0x3c078d6a	0.008273462
156	0x3cc4b6a7	0.024012877
157	0xbc4075ad	-0.011746806
158	0xbb42dc10	-0.0029733218
159	0x3c47676a	0.012170652
160	0x3d126b61	0.035746936
161	0xbca5b919	-0.020229863
162	0xbaef8ddc	-0.001827653
163	0xbcb169bd	-0.021656865
164	0x3d0f86db	0.035040718
165	0x3c56df01	0.013114692
166	0x3c86a494	0.016435899
167	0xbc6a2172	-0.014290201
168	0x3ccb4b63	0.02481622
169	0xbceb83eb	-0.028749427
170	0x3beaa218	0.0071604364
171	0xbaa6e93d	-0.0012734305
172	0xbc297240	-0.010342181
173	0x3c1330cd	0.008983803
174	0x3c52d366	0.012867784
175	0x3c901178	0.017586455
176	0xbc91cc32	-0.017797563
177	0x3c8dc3ec	0.017305337
178	0xbca1b0d9	-0.019737648
179	0xbc2369a6	-0.009973919
180	0x3c518331	0.012787626
181	0xbb9d6bc6	-0.0048041074
182	0x3d0e994f	0.034814175
183	0x3cb7e1aa	0.022446472
184	0xbc8d1960	-0.017224014
185	0xbbeab500	-0.00716269
186	0x3b47427f	0.0030404625
187	0x3ca237f2	0.019802067
188	0x3c896cef	0.016775576
189	0x3c0d8c8a	0.008639464
190	0x3c94620b	0.018113157
191	0xbc34d413	-0.011036891
192	0x3cce8d2f	0.025213806
193	0x3cc119df	0.023571907
194	0x3cdaaf2a	0.026694853
195	0xbc7e64b0	-0.015526935
196	0xbc0f6383	-0.008751753
197	0xbc38f9d7	-0.011290035
198	0x3c22f9f0	0.009947285
199	0xbc337b8a	-0.010954747
200	0x3d0fee73	0.035139512
201	0xbc945661	-0.018107595
202	0xbb489959	-0.003060898
203	0x3c9669a3	0.018360918
204	0x3d119b62	0.035548575
205	0xbb977fc3	-0.0046233847
206	0xbc8ceb6e	-0.017202105
207	0x3c3f46b3	0.011674571
208	0xbb06ef42	-0.0020589386
209	0x3c2310d0	0.009952739
210	0x3cd199d2	0.025586043
211	0x3b206d17	0.0024479085
212	0x3b2be46c	0.002622868
213	0x3ca41c03	0.020032888
214	0xbcf97486	-0.03045107
215	0xbbbd5c50	-0.005778827
216	0x3cc10316	0.023561042
217	0xbca9d9a7	-0.020733668
218	0x3ce49692	0.027903829
219	0xbd07d23c	-0.03315948
220	0xbc386419	-0.011254334
221	0x3ca7f31b	0.020501664
222	0x3d13eae5	0.036112685
223	0xbc9369d6	-0.017994802
224	0x3ce17a59	0.02752416
225	0x3c0abf4a	0.008468458
226	0xbd0070cf	-0.031357583
227	0x3bebf8b9	0.007201281
228	0xbcbc784b	-0.023006579
229	0x3c6c25f3	0.014413345
230	0x3cab641b	0.020921757
231	0xbc473329	-0.012158194
232	0xbbbdc4ed	-0.0057912976
233	0xbca1b4cb	-0.01973953
234	0x3d010b58	0.03150496
235	0x3ced62bb	0.028977742
236	0xbc04db6f	-0.008108958
237	0xbc0a3dfc	-0.00843763
238	0x3cefeadf	0.0292868
239	0xbd077290	-0.03306824
240	0x3c1f89f1	0.009737478
241	0x3c88cc35	0.016698936
242	0x3ae32471	0.0017329586
243	0xbc3374d4	-0.010953147
244	0xbc41ce50	-0.011828974
245	0x3cf7e683	0.030261284
246	0xbc26f1cb	-0.010189484
247	0x3ce0a6d7	0.027423305
248	0x3cf6182f	0.030040829
249	0x3c146eb5	0.009059598
250	0xbccb5b49	-0.024823802
251	0xbc336244	-0.010948721
252	0xbcafa153	-0.02143923
253	0x3b67dad1	0.0035378227
254	0xbb7725d7	-0.0037711763
255	0x3be831fd	0.007086037

base_model.model.model.layers.10.self_attn.q_proj.lora_B.weight f4 [896, 2]
0	0x3b18f2d3	0.0023338094
1	0xbb8294d1	-0.0039850255
2	0x3a52e4ba	0.0008044947
3	0xbbbca68c	-0.0057571586
4	0xbb7c662d	-0.003851305
5	0x3b789393	0.0037929758
6	0x3b372849	0.0027947596
7	0x3b1cf575	0.0023950015
8	0xbad206fd	-0.0016023811
9	0xbb30b819	-0.00269652
10	0x39c35097	0.00037253342
11	0xbb0ae83c	-0.0021195551
12	0xbb756ca3	-0.0037448786
13	0xbb276a48	-0.0025545526
14	0x3b0af0fa	0.0021200762
15	0x3b9a9251	0.0047171493
16	0xbae0f534	-0.001716292
17	0xbb875fdb	-0.0041313
18	0x3ae32418	0.0017329482
19	0x3b90cd7b	0.0044190264
20	0x3a9a3052	0.0011763668
21	0x39a7e409	0.00032022622
22	0x3b290675	0.0025791202
23	0x3ba3e3f1	0.005001538
24	0xbaf7c4e8	-0.0018903287
25	0xbb5d3108	-0.0033751149
26	0x3b4c712a	0.003119538
27	0x3b8b0075	0.004241998
28	0xbb0f948b	-0.0021908607
29	0x3af52392	0.0018702617
30	0x3b760760	0.0037541017
31	0x3b0d7dfb	0.0021589983
32	0x3b1ce5c8	0.0023940671
33	0x3b9ae744	0.004727276
34	0x3abe1719	0.0014502733
35	0x39ca1108	0.00038541132
36	0x3b3547c7	0.002766119
37	0x3bbe55c3	0.0058085634
38	0x3b0774a2	0.0020668884
39	0x3b8751d4	0.0041296277
40	0x3a8acd28	0.0010589706
41	0x3b4c4ece	0.00311749
42	0xbb873175	-0.004125769
43	0xbb403819	-0.0029330312
44	0xba1b8b52	-0.0005933541
45	0x3b94b8f0	0.004538648
46	0x3b140aa4	0.002258935
47	0x3b7b87dd	0.0038380541
48	0xbb1e6e50	-0.0024174638
49	0xbb46a9b5	-0.0030313556
50	0x3b1f92c9	0.0024348965
51	0x38d17e49	9.989419e-05
52	0xb922169f	-0.00015457951
53	0xbb77d3c0	-0.0037815422
54	0xbb23fac2	-0.002502129
55	0xbb8cbd81	-0.0042950516
56	0x3a81a319	0.0009890526
57	0x3af39190	0.001858281
58	0x3b3c1cb9	0.0028703643
59	0x3b94cadd	0.0045407848
60	0xbb26c5ac	-0.0025447411
61	0xbb99126a	-0.0046713846
62	0xbb3bc3d6	-0.0028650663
63	0xbb101c14	-0.0021989392
64	0xbae87582	-0.0017735215
65	0xbbd378a2	-0.0064535895
66	0x3abcdb7f	0.0014408677
67	0xbb152e1d	-0.0022763081
68	0x35036060	4.8941547e-07
69	0xbb3d0ade	-0.0028845589
70	0x3949300f	0.00019186757
71	0x3b98fac5	0.004668566
72	0x3aff8360	0.0019494109
73	0x3b92277f	0.0044602747
74	0x3b628ac2	0.003456757
75	0x3af36f46	0.0018572591
76	0xb986e4f2	-0.0002572905
77	0x3b3057d1	0.0026907811
78	0xbb65e1d2	-0.0035077226
79	0xbb8c4605	-0.004280808
80	0xbb21f564	-0.0024712915
81	0xbb09babd	-0.0021015846
82	0xbb41fc69	-0.002959991
83	0xbb9573ff	-0.004560947
84	0xbb8ee511	-0.004360803
85	0x39d0c75b	0.00039821383
86	0xbb1ba8c7	-0.0023751722
87	0xbb814ff6	-0.0039462997
88	0xbb1570a0	-0.0022802725
89	0xbb5b1e3d	-0.0033434771
90	0x3b492cca	0.0030696862
91	0x3b8cfbe6	0.0043024896
92	0xbab33f23	-0.0013675432
93	0xbb88c8a7	-0.0041743102
94	0xba45475a	-0.0007525586
95	0xba540119	-0.0008087322
96	0x3b259dfa	0.0025271163
97	0x3b90b8e5	0.0044165724
98	0x39cb2fde	0.0003875484
99	0xbb4460b5	-0.0029964868
100	0x39864481	0.0002560951
101	0xbafa50f5	-0.0019097613
102	0xba0c8917	-0.0005361004
103	0xbb51db37	-0.0032021531
104	0xbb2b275a	-0.0026115985
105	0xbb0f0f3b	-0.0021829146
106	0xbb53a65c	-0.0032295203
107	0xbaee2230	-0.0018168148
108	0xbaf06e3c	-0.0018343399
109	0x3a8b6b04	0.0010636752
110	0x3b510e28	0.0031899307
111	0x3b86b8dc	0.0041113924
112	0xbb2100aa	-0.0024567046
113	0x3ad736d1	0.0016419535
114	0x3a3e8dc1	0.0007269048
115	0xbb16ca1a	-0.0023008646
116	0x3a87736b	0.001033408
117	0x3a3519bd	0.00069084374
118	0x3b2b028f	0.0026094054
119	0x3b8f206f	0.00436788
120	0xbb23eab8	-0.002501173
121	0xba53cf4e	-0.0008079902
122	0x39e51763	0.00043695708
123	0x36bc6cda	5.6155086e-06
124	0x3b26f60e	0.002547625
125	0xbb2851ce	-0.0025683525
126	0x3abc8a0e	0.0014384405
127	0xbb3bebb7	-0.0028674433
128	0x3b24b048	0.0025129486
129	0xba72a328	-0.00092558796
130	0x3b96dc97	0.004603933
131	0xbb09a384	-0.0021002004
132	0x3a4a3c9f	0.0007714722
133	0x3b9eab61	0.0048422073
134	0xba6c556a	-0.0009015413
135	0x3bbd3187	0.0057737264
136	0xbb5a3903	-0.0033298142
137	0x3aa4a620	0.0012561716
138	0xba9595cf	-0.0011412444
139	0x3ae5db7b	0.0017536724
140	0x3b9296e0	0.004473552
141	0xbb713efe	-0.0036811228
142	0xbbb98f77	-0.0056628543
143	0x3b9c4439	0.004768875
144	0x3b6c3d4e	0.0036047283
145	0xbb8bcecc	-0.0042665955
146	0xbb90e911	-0.004422315
147	0x3ba7fb2e	0.0051263785
148	0x3a775ba6	0.0009435959
149	0xbb2490ef	-0.0025110801
150	0xbb72d230	-0.003705155
151	0x3b900be3	0.0043959483
152	0x3b884694	0.004158804
153	0xbb801bcd	-0.003909564
154	0xbb57f237	-0.0032950768
155	0x3b982ccb	0.0046440116
156	0xb9bb2d9a	-0.00035701395
157	0x3be298b9	0.0069151786
158	0xbb868e2a	-0.0041063027
159	0x3b2ce7df	0.0026383323
160	0xbb55f702	-0.0032648449
161	0x3b8ed408	0.004358772
162	0xbb738aea	-0.0037161657
163	0xbabbd6cd	-0.0014330983
164	0xbb6c4424	-0.0036051357
165	0x3b8e098b	0.0043346337
166	0xbb788868	-0.0037923101
167	0x3b946965	0.0045291656
168	0xbb11b269	-0.0022231585
169	0x3b9736ee	0.0046147024
170	0xbb87b133	-0.004140997
171	0xbb1ec733	-0.0024227619
172	0xbb87c782	-0.004143656
173	0x3b9c7ddd	0.0047757463
174	0xbb4ce41c	-0.0031263893
175	0x3b775b5f	0.003774367
176	0xba84a84e	-0.001012096
177	0xbb6fb8d8	-0.0036578681
178	0xbb2d8781	-0.0026478472
179	0x3b7ad16c	0.0038271798
180	0x3b58177b	0.003297298
181	0xbb9240b7	-0.004463281
182	0x3b73323f	0.0037108806
183	0xbb93497b	-0.0044948435
184	0x3af3e216	0.0018606808
185	0xbb1e4791	-0.0024151544
186	0xbb44a478	-0.0030005258
187	0x3ba3bac6	0.0049966304
188	0x3a227cdb	0.00061984145
189	0xbb1e0015	-0.0024108936
190	0x3b853cd5	0.0040660896
191	0xbb160b03	-0.0022894747
192	0x3acf9760	0.001583796
193	0xba9d01d5	-0.0011978695
194	0x3b20e4c2	0.0024550413
195	0xba6a9f36	-0.0008950116
196	0x3a920754	0.00111411
197	0x39df189a	0.00042552204
198	0xbb223277	-0.0024749318
199	0x3b2ac02a	0.002605448
200	0xbab1e1d7	-0.0013571334
201	0x3b5dadd7	0.003382554
202	0xbb8139eb	-0.003943672
203	0x3b7c9303	0.0038539774
204	0xbb342556	-0.0027488074
205	0x3b3f8558	0.0029223766
206	0x3b817209	0.0039503616
207	0xbb8fe6be	-0.0043915203
208	0x3b8a433f	0.004219442
209	0xbb086b66	-0.0020815968
210	0x3b4bcaf7	0.0031096318
211	0xbb8c6014	-0.0042839143
212	0x3b0c014a	0.0021363073
213	0xbaac6aec	-0.0013154424
214	0x3b6fe133	0.0036602735
215	0xbb94e1e3	-0.0045435294
216	0x3b84efab	0.004056891
217	0xbb9009e9	-0.0043957126
218	0xbb728ed5	-0.0037011404
219	0x3b91fd76	0.0044552637
220	0x3b6ca4c6	0.0036108955
221	0xbb9dfcaf	-0.004821382
222	0xbac24a9c	-0.0014823261
223	0xbac6316c	-0.001512093
224	0xbb66b366	-0.0035202145
225	0x3b8a0ffe	0.004213332
226	0x3ba02fa8	0.0048884936
227	0xbb84b2b3	-0.004049623
228	0x3be190b6	0.006883706
229	0xbb45ceeb	-0.0030183147
230	0x3b7c0a02	0.0038458114
231	0xbb872a5c	-0.0041249227
232	0x3b105376	0.0022022403
233	0xbadf8395	-0.0017052764
234	0x3acf4dc3	0.0015816021
235	0xbb6cc9b6	-0.0036130971
236	0x3b176f0c	0.002310696
237	0xbb004c4d	-0.0019576729
238	0xbb67ea31	-0.0035387392
239	0x3b8ddf45	0.0043295943
240	0xbb877a98	-0.0041344874
241	0x3b8c5088	0.004282061
242	0x3b2f10b0	0.0026712827
243	0xbb44d7ba	-0.003003581
244	0xb92202c7	-0.00015450559
245	0x3a1ceed9	0.0005986519
246	0xbb6cac66	-0.00361135
247	0x3b8f3be3	0.0043711527
248	0x3b5a3a88	0.0033299047
249	0xbb02f625	-0.001998314
250	0x3a77d2ab	0.0009453694
251	0x3b6f64d3	0.0036528602
252	0x3ae928b4	0.001778862
253	0xbb9afaf6	-0.004729624
254	0x3b46e451	0.003034849
255	0xbb8af9ed	-0.0042412193

base_model.model.model.layers.11.self_attn.q_proj.lora_A.weight f4 [2, 896]
0	0xbc1539c2	-0.009108009
1	0xbc7becf5	-0.015376319
2	0x3d0766ee	0.033057146
3	0xbc5bd3e8	-0.013417222
4	0x3c8ac099	0.01693754
5	0xbc1e7319	-0.009670996
6	0xbcc3f65b	-0.023921182
7	0x3cceadc9	0.025229352
8	0x3c92810f	0.017883806
9	0x3ce5363c	0.027979963
10	0xbc1fd2b8	-0.009754829
11	0xbc4172a6	-0.0118071195
12	0xbbce9fb5	-0.0063056597
13	0x3cee3f03	0.02908278
14	0x3cf819fb	0.030285826
15	0xbccfbfee	-0.025360074
16	0xbc6b5921	-0.014364512
17	0xbc94644c	-0.018114232
18	0xbcd96149	-0.026535647
19	0xbce82987	-0.028340114
20	0x3cb7b8ec	0.022427045
21	0xbce82aca	-0.028340716
22	0xbcd74595	-0.026278296
23	0xbc98ec19	-0.018667268
24	0x3c1af18f	0.009457006
25	0x3ca5f223	0.020257061
26	0xbc7e5997	-0.01552429
27	0xbbd8fdd7	-0.006622057
28	0xbbd5b862	-0.0065222243
29	0x3bc6645a	0.0060544433
30	0x3ca3e328	0.020005777
31	0x3c8f810c	0.017517589
32	0x3ccccd64	0.025000282
33	0xbc94ef70	-0.018180579
34	0xbd129b55	-0.035792667
35	0x3cfbafa1	0.030723395
36	0x3c73a987	0.014871961
37	0x3c815862	0.015789215
38	0x3caa35c1	0.020777585
39	0xbcff61cf	-0.031174568
40	0x3c856fd0	0.016288668
41	0x3cda662e	0.026660051
42	0xbcc43056	-0.02394883
43	0x3b89f747	0.004210386
44	0xbd0feaf2	-0.03513617
45	0xbcdaacca	-0.02669372
46	0xbc80cbdf	-0.015722213
47	0x3ce0ae1b	0.02742677
48	0xbb08604d	-0.0020809353
49	0xbaf9ba53	-0.0019052721
50	0xbca15136	-0.019692045
51	0x3cccdc3d	0.025007362
52	0x3c1d44d8	0.009598933
53	0x3c8ca24b	0.017167231
54	0x3c9eaa02	0.019368175
55	0x3c9592d1	0.018258484
56	0xbc8a0dd2	-0.016852293
57	0x3ba9cfcb	0.0051822416
58	0xbc96c01c	-0.018402152
59	0x3d09cd8b	0.033643287
60	0xbb95e2f7	-0.0045741755
61	0xbc70271f	-0.014657765
62	0xbab1519c	-0.001352835
63	0x3cd7969f	0.026316939
64	0xbbb29ef6	-0.0054510785
65	0xbc06c2db	-0.008225168
66	0xbcced764	-0.02524919
67	0x3c80decb	0.015731236
68	0xbbdf81f6	-0.0068209125
69	0x3c5025f2	0.012704359
70	0x3c82edf6	0.01598261
71	0x3be932a9	0.007116635
72	0x3d11081b	0.03540812
73	0x3bfa83da	0.0076451125
74	0x3d005647	0.03133228
75	0xbbfef380	-0.0077804923
76	0xbc82cdb9	-0.015967237
77	0xbc65ddd5	-0.01402994
78	0xbb1ff27d	-0.002440601
79	0x3cceff57	0.02526824
80	0x3c47320e	0.01215793
81	0xbbcceb53	-0.006253639
82	0x3bdb82c2	0.006698937
83	0x3cd1abb7	0.025594575
84	0x39d02414	0.00039699732
85	0x3bfeb6e8	0.007773269
86	0xbc90480c	-0.01761248
87	0x3c155cfc	0.0091164075
88	0x3c0413d4	0.008061368
89	0xbca16f22	-0.019706313
90	0x3cc6dcdb	0.024275234
91	0xbce28d79	-0.02765535
92	0xbcbfefcf	-0.02342978
93	0xbb1d8a4f	-0.0024038737
94	0xbc6bd21c	-0.014393356
95	0x3d05ae3c	0.032636866
96	0x3bbb94a5	0.005724507
97	0xbcd25f45	-0.025680194
98	0x3baef3a2	0.005339102
99	0xbcb71b42	-0.022351865
100	0xbcd44a45	-0.02591432
101	0xbcc7d182	-0.024391893
102	0x3bf680ae	0.007522664
103	0xbba9b979	-0.0051795808
104	0xbc067592	-0.008206742
105	0xba247a01	-0.00062742835
106	0x3c24375a	0.0100229625
107	0x3a26087f	0.00063336635
108	0xbc2baea5	-0.01047865
109	0xbcda083b	-0.026615253
110	0x3d02a42d	0.03189485
111	0x3cee9803	0.02912522
112	0xbcb287ca	-0.021793265
113	0x3b67989a	0.003533876
114	0x3be2d19f	0.0069219614
115	0x3c9a4b1c	0.018834643
116	0x3c950b26	0.018193793
117	0xbbc082ee	-0.005874983
118	0x3b093f29	0.0020942187
119	0x3cfa3ab5	0.030545572
120	0x3c603cbd	0.013686356
121	0x3b020c00	0.0019843578
122	0x3ba2dc0b	0.004970079
123	0xbc91f8ce	-0.017818835
124	0x3cf2ce0c	0.029639266
125	0x3ceb6105	0.028732786
126	0xbb44dfde	-0.0030040662
127	0x3d068dda	0.032850124
128	0x3cb6cc63	0.022314256
129	0x3bdd14d1	0.0067468663
130	0xbc434a28	-0.011919536
131	0xbc4d8018	-0.012542747
132	0x3caaadb0	0.020834774
133	0x3cb51809	0.022106187
134	0xbc959a5b	-0.018262079
135	0xbcac54be	-0.021036502
136	0x3c3cb15e	0.011516897
137	0x3c80429c	0.015656762
138	0x3b11726a	0.002219344
139	0xbc93609d	-0.017990405
140	0xbca06539	-0.019579517
141	0xbacef168	-0.0015788497
142	0xbc62e693	-0.0138489185
143	0x3bc496b9	0.005999413
144	0x3c2782c8	0.010224052
145	0x3bd22ba7	0.006413895
146	0x3cb5b45a	0.022180725
147	0x3ce2c15c	0.027680092
148	0x3d023d8a	0.03179697
149	0x3c985d74	0.01859925
150	0xbce4c92c	-0.027927957
151	0xbcbd7e3b	-0.02313148
152	0xbb97913c	-0.0046254676
153	0x3c1ff7da	0.009763682
154	0xbc6f96c2	-0.014623346
155	0x3c9a8750	0.01886335
156	0x3b082768	0.002077544
157	0x3b380a77	0.002808241
158	0xbaaefa95	-0.0013349826
159	0x3cb32138	0.021866426
160	0xbcb0f40b	-0.021600744
161	0x3c4194eb	0.01181529
162	0xbcf9309e	-0.03041869
163	0x3c0acf5a	0.008472288
164	0x3d0fe44d	0.035129834
165	0x3ce4f717	0.027949853
166	0xbc947433	-0.018121814
167	0xbc64fd39	-0.013976389
168	0x3c3d9a54	0.011572439
169	0x3d092a36	0.03348752
170	0x3cd30765	0.025760362
171	0xbd0b7d32	-0.034054942
172	0xbc8ddba8	-0.017316654
173	0xbcae2d35	-0.02126179
174	0x3cabd34f	0.020974783
175	0x3cdbc921	0.026829304
176	0x3bfa8633	0.0076453923
177	0x3d136c20	0.035991788
178	0xbccdbd9b	-0.025114825
179	0x3cbbc1c1	0.022919537
180	0x3d03b7bb	0.03215764
181	0x3b9d98a2	0.004809455
182	0x3c52f21b	0.012875105
183	0x3c1133ad	0.008862418
184	0x3d0f51a1	0.034989957
185	0x3c5fe9e5	0.013666605
186	0xbb15f4ae	-0.0022881436
187	0xbce24719	-0.027621793
188	0xbcbf93bf	-0.02338588
189	0x3cf9c23f	0.030488132
190	0x385186c2	4.9954986e-05
191	0x3ca2b7b6	0.01986299
192	0xbcf5fe4f	-0.03002849
193	0xbc91b2f5	-0.017785529
194	0x3ca62462	0.02028102
195	0x3bb82199	0.0056192395
196	0x3c97a079	0.018509137
197	0x3cd077e6	0.025447797
198	0xbc23ffa0	-0.010009676
199	0xbc3eed45	-0.011653249
200	0x3ce14908	0.027500644
201	0x3ce7b401	0.028284075
202	0x3d060737	0.032721724
203	0xbcdc987e	-0.026928183
204	0x3c7f1b0b	0.015570412
205	0xbc840adc	-0.01611846
206	0x3c88f084	0.01671625
207	0xba8fc0c3	-0.0010967482
208	0x3cea6d0f	0.028616456
209	0x3c6681a8	0.014068998
210	0x3c832974	0.016010977
211	0x3ca96e14	0.020682372
212	0xbc200999	-0.009767913
213	0xbbc34107	-0.0059586796
214	0xbcb147c2	-0.021640662
215	0x3bc86d4f	0.006116546
216	0xbb9f210f	-0.004856236
217	0xbc04e6a3	-0.008111629
218	0x3c8a3b8f	0.016874103
219	0xbcaaa142	-0.020828847
220	0xbc8df6f1	-0.017329665
221	0xbcb96c76	-0.022634726
222	0x3b78356d	0.003787364
223	0xbcf0fd5c	-0.029417686
224	0xbc9dc55b	-0.019259145
225	0x3c8f2dc1	0.017477872
226	0xbcf8ae7e	-0.030356642
227	0x3cdefcdf	0.027220188
228	0x3ccf187e	0.025280233
229	0x3c671624	0.0141044
230	0x3cab6b6e	0.02092525
231	0xbc5f1b5b	-0.013617362
232	0x3c7bdf09	0.015373
233	0x3c2803f3	0.010254848
234	0x3cb3204c	0.021865986
235	0x3a6c6fca	0.00090193434
236	0x3cf5205e	0.02992266
237	0x3d02c47a	0.031925656
238	0x3d189313	0.037249636
239	0x3c5aefac	0.013362806
240	0x3be19999	0.0068847653
241	0xbc94433f	-0.018098472
242	0x3b9efa7a	0.0048516365
243	0x3d02d8a2	0.03194488
244	0x3c9eb146	0.01937164
245	0x3cd0af5a	0.02547424
246	0x3ced6f1a	0.028983641
247	0x3c7a6854	0.015283663
248	0x3b9ba7f3	0.0047502457
249	0xba74394b	-0.00093163986
250	0xbc8b901e	-0.017036494
251	0x3c9dbecb	0.019256016
252	0x3c7ecef3	0.01555227
253	0xbc24ebf3	-0.01006602
254	0xbc8a22e9	-0.01686235
255	0xbb265afb	-0.0025383818
